…
I0812 10:55:20.310861 16341 net.cpp:287] The NetState phase (0) differed from the phase (1) specified by a rule in layer data
I0812 10:55:20.310879 16341 net.cpp:287] The NetState phase (0) differed from the phase (1) specified by a rule in layer accuracy
I0812 10:55:20.310920 16341 net.cpp:42] Initializing net from parameters: 
name: "LogisticRegressionNet"
state {
  phase: TRAIN
}
layer {
  name: "data"
  type: "HDF5Data"
  top: "data"
  top: "label"
  include {
    phase: TRAIN
  }
  hdf5_data_param {
    source: "/home/abba/caffe/examples/simple/train_list.txt"
    batch_size: 5
  }
}
layer {
  name: "fc1"
  type: "InnerProduct"
  bottom: "data"
  top: "fc1"
  param {
    lr_mult: 1
    decay_mult: 1
  }
  param {
    lr_mult: 2
    decay_mult: 0
  }
  inner_product_param {
    num_output: 2
    weight_filler {
      type: "xavier"
    }
    bias_filler {
      type: "constant"
      value: 0
    }
  }
}
layer {
  name: "loss"
  type: "SoftmaxWithLoss"
  bottom: "fc1"
  bottom: "label"
  top: "loss"
}
I0812 10:55:20.311076 16341 net.cpp:67] Memory required for data: 0
I0812 10:55:20.311101 16341 layer_factory.hpp:74] Creating layer data
I0812 10:55:20.311118 16341 net.cpp:90] Creating Layer data
I0812 10:55:20.311131 16341 net.cpp:368] data -> data
I0812 10:55:20.311152 16341 net.cpp:368] data -> label
I0812 10:55:20.311167 16341 net.cpp:120] Setting up data
I0812 10:55:20.311177 16341 hdf5_data_layer.cpp:80] Loading list of HDF5 filenames from: /home/abba/caffe/examples/simple/train_list.txt
I0812 10:55:20.311223 16341 hdf5_data_layer.cpp:94] Number of HDF5 files: 1
I0812 10:55:20.311234 16341 hdf5_data_layer.cpp:29] Loading HDF5 file: /home/abba/caffe/examples/simple/train.h5
I0812 10:55:20.312093 16341 hdf5_data_layer.cpp:68] Successully loaded 100 rows
I0812 10:55:20.312125 16341 net.cpp:127] Top shape: 5 2 (10)
I0812 10:55:20.312137 16341 net.cpp:127] Top shape: 5 1 (5)
I0812 10:55:20.312145 16341 net.cpp:133] Memory required for data: 60
I0812 10:55:20.312155 16341 layer_factory.hpp:74] Creating layer fc1
I0812 10:55:20.312173 16341 net.cpp:90] Creating Layer fc1
I0812 10:55:20.312182 16341 net.cpp:410] fc1 <- data
I0812 10:55:20.312201 16341 net.cpp:368] fc1 -> fc1
I0812 10:55:20.312219 16341 net.cpp:120] Setting up fc1
I0812 10:55:20.312598 16341 net.cpp:127] Top shape: 5 2 (10)
I0812 10:55:20.312610 16341 net.cpp:133] Memory required for data: 100
I0812 10:55:20.312628 16341 layer_factory.hpp:74] Creating layer loss
I0812 10:55:20.312641 16341 net.cpp:90] Creating Layer loss
I0812 10:55:20.312650 16341 net.cpp:410] loss <- fc1
I0812 10:55:20.312661 16341 net.cpp:410] loss <- label
I0812 10:55:20.312674 16341 net.cpp:368] loss -> loss
I0812 10:55:20.312686 16341 net.cpp:120] Setting up loss
…
I0812 10:55:20.312963 16341 solver.cpp:154] Creating test net (#0) specified by test_net file: /home/abba/caffe/examples/simple/train.prototxt
I0812 10:55:20.312988 16341 net.cpp:287] The NetState phase (1) differed from the phase (0) specified by a rule in layer data
I0812 10:55:20.313040 16341 net.cpp:42] Initializing net from parameters: 
name: "LogisticRegressionNet"
state {
  phase: TEST
}
layer {
  name: "data"
  type: "HDF5Data"
  top: "data"
  top: "label"
  include {
    phase: TEST
  }
  hdf5_data_param {
    source: "/home/abba/caffe/examples/simple/test_list.txt"
    batch_size: 5
  }
}
layer {
  name: "fc1"
  type: "InnerProduct"
  bottom: "data"
  top: "fc1"
  param {
    lr_mult: 1
    decay_mult: 1
  }
  param {
    lr_mult: 2
    decay_mult: 0
  }
  inner_product_param {
    num_output: 2
    weight_filler {
      type: "xavier"
    }
    bias_filler {
      type: "constant"
      value: 0
    }
  }
}
layer {
  name: "loss"
  type: "SoftmaxWithLoss"
  bottom: "fc1"
  bottom: "label"
  top: "loss"
}
layer {
  name: "accuracy"
  type: "Accuracy"
  bottom: "fc1"
  bottom: "label"
  top: "accuracy"
  include {
    phase: TEST
  }
}
I0812 10:55:20.313232 16341 net.cpp:67] Memory required for data: 0
I0812 10:55:20.313254 16341 layer_factory.hpp:74] Creating layer data
I0812 10:55:20.313268 16341 net.cpp:90] Creating Layer data
I0812 10:55:20.313279 16341 net.cpp:368] data -> data
I0812 10:55:20.313295 16341 net.cpp:368] data -> label
I0812 10:55:20.313309 16341 net.cpp:120] Setting up data
I0812 10:55:20.313318 16341 hdf5_data_layer.cpp:80] Loading list of HDF5 filenames from: /home/abba/caffe/examples/simple/test_list.txt
I0812 10:55:20.313341 16341 hdf5_data_layer.cpp:94] Number of HDF5 files: 1
I0812 10:55:20.313350 16341 hdf5_data_layer.cpp:29] Loading HDF5 file: /home/abba/caffe/examples/simple/test.h5
I0812 10:55:20.313679 16341 hdf5_data_layer.cpp:68] Successully loaded 30 rows
I0812 10:55:20.313701 16341 net.cpp:127] Top shape: 5 2 (10)
I0812 10:55:20.313712 16341 net.cpp:127] Top shape: 5 1 (5)
I0812 10:55:20.313720 16341 net.cpp:133] Memory required for data: 60
I0812 10:55:20.313730 16341 layer_factory.hpp:74] Creating layer label_data_1_split
I0812 10:55:20.313743 16341 net.cpp:90] Creating Layer label_data_1_split
I0812 10:55:20.313753 16341 net.cpp:410] label_data_1_split <- label
I0812 10:55:20.313766 16341 net.cpp:368] label_data_1_split -> label_data_1_split_0
I0812 10:55:20.313781 16341 net.cpp:368] label_data_1_split -> label_data_1_split_1
I0812 10:55:20.313793 16341 net.cpp:120] Setting up label_data_1_split
I0812 10:55:20.313807 16341 net.cpp:127] Top shape: 5 1 (5)
I0812 10:55:20.313817 16341 net.cpp:127] Top shape: 5 1 (5)
I0812 10:55:20.313827 16341 net.cpp:133] Memory required for data: 100
I0812 10:55:20.313837 16341 layer_factory.hpp:74] Creating layer fc1
I0812 10:55:20.313851 16341 net.cpp:90] Creating Layer fc1
I0812 10:55:20.313863 16341 net.cpp:410] fc1 <- data
I0812 10:55:20.313875 16341 net.cpp:368] fc1 -> fc1
I0812 10:55:20.313889 16341 net.cpp:120] Setting up fc1
I0812 10:55:20.313915 16341 net.cpp:127] Top shape: 5 2 (10)
I0812 10:55:20.313923 16341 net.cpp:133] Memory required for data: 140
I0812 10:55:20.313940 16341 layer_factory.hpp:74] Creating layer fc1_fc1_0_split
I0812 10:55:20.313951 16341 net.cpp:90] Creating Layer fc1_fc1_0_split
I0812 10:55:20.313961 16341 net.cpp:410] fc1_fc1_0_split <- fc1
I0812 10:55:20.313972 16341 net.cpp:368] fc1_fc1_0_split -> fc1_fc1_0_split_0
I0812 10:55:20.313985 16341 net.cpp:368] fc1_fc1_0_split -> fc1_fc1_0_split_1
I0812 10:55:20.313997 16341 net.cpp:120] Setting up fc1_fc1_0_split
I0812 10:55:20.314009 16341 net.cpp:127] Top shape: 5 2 (10)
I0812 10:55:20.314019 16341 net.cpp:127] Top shape: 5 2 (10)
I0812 10:55:20.314026 16341 net.cpp:133] Memory required for data: 220
I0812 10:55:20.314034 16341 layer_factory.hpp:74] Creating layer loss
I0812 10:55:20.314048 16341 net.cpp:90] Creating Layer loss
I0812 10:55:20.314055 16341 net.cpp:410] loss <- fc1_fc1_0_split_0
I0812 10:55:20.314087 16341 net.cpp:410] loss <- label_data_1_split_0
I0812 10:55:20.314100 16341 net.cpp:368] loss -> loss
I0812 10:55:20.314113 16341 net.cpp:120] Setting up loss
…
