…
I0812 11:08:08.345298 16428 net.cpp:287] The NetState phase (0) differed from the phase (1) specified by a rule in layer data
I0812 11:08:08.345315 16428 net.cpp:287] The NetState phase (0) differed from the phase (1) specified by a rule in layer accuracy
I0812 11:08:08.345356 16428 net.cpp:42] Initializing net from parameters: 
name: "LogisticRegressionNet"
state {
  phase: TRAIN
}
layer {
  name: "data"
  type: "HDF5Data"
  top: "data"
  top: "label"
  include {
    phase: TRAIN
  }
  hdf5_data_param {
    source: "/home/abba/caffe/examples/simple/train_list.txt"
    batch_size: 5
  }
}
layer {
  name: "fc1"
  type: "InnerProduct"
  bottom: "data"
  top: "fc1"
  param {
    lr_mult: 1
    decay_mult: 1
  }
  param {
    lr_mult: 2
    decay_mult: 0
  }
  inner_product_param {
    num_output: 2
    weight_filler {
      type: "xavier"
    }
    bias_filler {
      type: "constant"
      value: 0
    }
  }
}
layer {
  name: "loss"
  type: "SoftmaxWithLoss"
  bottom: "fc1"
  bottom: "label"
  top: "loss"
}
I0812 11:08:08.345533 16428 net.cpp:67] Memory required for data: 0
I0812 11:08:08.345558 16428 layer_factory.hpp:74] Creating layer data
I0812 11:08:08.345577 16428 net.cpp:90] Creating Layer data
I0812 11:08:08.345589 16428 net.cpp:368] data -> data
I0812 11:08:08.345612 16428 net.cpp:368] data -> label
I0812 11:08:08.345626 16428 net.cpp:120] Setting up data
I0812 11:08:08.345636 16428 hdf5_data_layer.cpp:80] Loading list of HDF5 filenames from: /home/abba/caffe/examples/simple/train_list.txt
I0812 11:08:08.345684 16428 hdf5_data_layer.cpp:94] Number of HDF5 files: 1
I0812 11:08:08.345695 16428 hdf5_data_layer.cpp:29] Loading HDF5 file: /home/abba/caffe/examples/simple/train.h5
I0812 11:08:08.346561 16428 hdf5_data_layer.cpp:68] Successully loaded 100 rows
I0812 11:08:08.346593 16428 net.cpp:127] Top shape: 5 2 (10)
I0812 11:08:08.346606 16428 net.cpp:127] Top shape: 5 1 (5)
I0812 11:08:08.346616 16428 net.cpp:133] Memory required for data: 60
I0812 11:08:08.346626 16428 layer_factory.hpp:74] Creating layer fc1
I0812 11:08:08.346644 16428 net.cpp:90] Creating Layer fc1
I0812 11:08:08.346654 16428 net.cpp:410] fc1 <- data
I0812 11:08:08.346675 16428 net.cpp:368] fc1 -> fc1
I0812 11:08:08.346693 16428 net.cpp:120] Setting up fc1
I0812 11:08:08.347080 16428 net.cpp:127] Top shape: 5 2 (10)
I0812 11:08:08.347092 16428 net.cpp:133] Memory required for data: 100
I0812 11:08:08.347111 16428 layer_factory.hpp:74] Creating layer loss
I0812 11:08:08.347126 16428 net.cpp:90] Creating Layer loss
I0812 11:08:08.347136 16428 net.cpp:410] loss <- fc1
I0812 11:08:08.347148 16428 net.cpp:410] loss <- label
I0812 11:08:08.347162 16428 net.cpp:368] loss -> loss
I0812 11:08:08.347175 16428 net.cpp:120] Setting up loss
…
I0812 11:08:08.347476 16428 solver.cpp:154] Creating test net (#0) specified by test_net file: /home/abba/caffe/examples/simple/train.prototxt
I0812 11:08:08.347503 16428 net.cpp:287] The NetState phase (1) differed from the phase (0) specified by a rule in layer data
I0812 11:08:08.347556 16428 net.cpp:42] Initializing net from parameters: 
name: "LogisticRegressionNet"
state {
  phase: TEST
}
layer {
  name: "data"
  type: "HDF5Data"
  top: "data"
  top: "label"
  include {
    phase: TEST
  }
  hdf5_data_param {
    source: "/home/abba/caffe/examples/simple/test_list.txt"
    batch_size: 5
  }
}
layer {
  name: "fc1"
  type: "InnerProduct"
  bottom: "data"
  top: "fc1"
  param {
    lr_mult: 1
    decay_mult: 1
  }
  param {
    lr_mult: 2
    decay_mult: 0
  }
  inner_product_param {
    num_output: 2
    weight_filler {
      type: "xavier"
    }
    bias_filler {
      type: "constant"
      value: 0
    }
  }
}
layer {
  name: "loss"
  type: "SoftmaxWithLoss"
  bottom: "fc1"
  bottom: "label"
  top: "loss"
}
layer {
  name: "accuracy"
  type: "Accuracy"
  bottom: "fc1"
  bottom: "label"
  top: "accuracy"
  include {
    phase: TEST
  }
}
I0812 11:08:08.347795 16428 net.cpp:67] Memory required for data: 0
I0812 11:08:08.347817 16428 layer_factory.hpp:74] Creating layer data
I0812 11:08:08.347832 16428 net.cpp:90] Creating Layer data
I0812 11:08:08.347843 16428 net.cpp:368] data -> data
I0812 11:08:08.347861 16428 net.cpp:368] data -> label
I0812 11:08:08.347875 16428 net.cpp:120] Setting up data
I0812 11:08:08.347885 16428 hdf5_data_layer.cpp:80] Loading list of HDF5 filenames from: /home/abba/caffe/examples/simple/test_list.txt
I0812 11:08:08.347908 16428 hdf5_data_layer.cpp:94] Number of HDF5 files: 1
I0812 11:08:08.347919 16428 hdf5_data_layer.cpp:29] Loading HDF5 file: /home/abba/caffe/examples/simple/test.h5
I0812 11:08:08.348266 16428 hdf5_data_layer.cpp:68] Successully loaded 30 rows
I0812 11:08:08.348289 16428 net.cpp:127] Top shape: 5 2 (10)
I0812 11:08:08.348300 16428 net.cpp:127] Top shape: 5 1 (5)
I0812 11:08:08.348309 16428 net.cpp:133] Memory required for data: 60
I0812 11:08:08.348320 16428 layer_factory.hpp:74] Creating layer label_data_1_split
I0812 11:08:08.348333 16428 net.cpp:90] Creating Layer label_data_1_split
I0812 11:08:08.348343 16428 net.cpp:410] label_data_1_split <- label
I0812 11:08:08.348356 16428 net.cpp:368] label_data_1_split -> label_data_1_split_0
I0812 11:08:08.348372 16428 net.cpp:368] label_data_1_split -> label_data_1_split_1
I0812 11:08:08.348387 16428 net.cpp:120] Setting up label_data_1_split
I0812 11:08:08.348400 16428 net.cpp:127] Top shape: 5 1 (5)
I0812 11:08:08.348412 16428 net.cpp:127] Top shape: 5 1 (5)
I0812 11:08:08.348419 16428 net.cpp:133] Memory required for data: 100
I0812 11:08:08.348428 16428 layer_factory.hpp:74] Creating layer fc1
I0812 11:08:08.348444 16428 net.cpp:90] Creating Layer fc1
I0812 11:08:08.348454 16428 net.cpp:410] fc1 <- data
I0812 11:08:08.348469 16428 net.cpp:368] fc1 -> fc1
I0812 11:08:08.348484 16428 net.cpp:120] Setting up fc1
I0812 11:08:08.348508 16428 net.cpp:127] Top shape: 5 2 (10)
I0812 11:08:08.348518 16428 net.cpp:133] Memory required for data: 140
I0812 11:08:08.348536 16428 layer_factory.hpp:74] Creating layer fc1_fc1_0_split
I0812 11:08:08.348548 16428 net.cpp:90] Creating Layer fc1_fc1_0_split
I0812 11:08:08.348557 16428 net.cpp:410] fc1_fc1_0_split <- fc1
I0812 11:08:08.348570 16428 net.cpp:368] fc1_fc1_0_split -> fc1_fc1_0_split_0
I0812 11:08:08.348594 16428 net.cpp:368] fc1_fc1_0_split -> fc1_fc1_0_split_1
I0812 11:08:08.348608 16428 net.cpp:120] Setting up fc1_fc1_0_split
I0812 11:08:08.348621 16428 net.cpp:127] Top shape: 5 2 (10)
I0812 11:08:08.348633 16428 net.cpp:127] Top shape: 5 2 (10)
I0812 11:08:08.348641 16428 net.cpp:133] Memory required for data: 220
I0812 11:08:08.348650 16428 layer_factory.hpp:74] Creating layer loss
I0812 11:08:08.348664 16428 net.cpp:90] Creating Layer loss
I0812 11:08:08.348673 16428 net.cpp:410] loss <- fc1_fc1_0_split_0
I0812 11:08:08.348702 16428 net.cpp:410] loss <- label_data_1_split_0
I0812 11:08:08.348716 16428 net.cpp:368] loss -> loss
I0812 11:08:08.348729 16428 net.cpp:120] Setting up loss
…
