…
I0812 11:11:16.403867 16535 net.cpp:287] The NetState phase (0) differed from the phase (1) specified by a rule in layer data
I0812 11:11:16.403884 16535 net.cpp:287] The NetState phase (0) differed from the phase (1) specified by a rule in layer accuracy
I0812 11:11:16.403926 16535 net.cpp:42] Initializing net from parameters: 
name: "LogisticRegressionNet"
state {
  phase: TRAIN
}
layer {
  name: "data"
  type: "HDF5Data"
  top: "data"
  top: "label"
  include {
    phase: TRAIN
  }
  hdf5_data_param {
    source: "/home/abba/caffe/examples/simple/train_list.txt"
    batch_size: 5
  }
}
layer {
  name: "fc1"
  type: "InnerProduct"
  bottom: "data"
  top: "fc1"
  param {
    lr_mult: 1
    decay_mult: 1
  }
  param {
    lr_mult: 2
    decay_mult: 0
  }
  inner_product_param {
    num_output: 2
    weight_filler {
      type: "xavier"
    }
    bias_filler {
      type: "constant"
      value: 0
    }
  }
}
layer {
  name: "loss"
  type: "SoftmaxWithLoss"
  bottom: "fc1"
  bottom: "label"
  top: "loss"
}
I0812 11:11:16.404119 16535 net.cpp:67] Memory required for data: 0
I0812 11:11:16.404144 16535 layer_factory.hpp:74] Creating layer data
I0812 11:11:16.404161 16535 net.cpp:90] Creating Layer data
I0812 11:11:16.404175 16535 net.cpp:368] data -> data
I0812 11:11:16.404196 16535 net.cpp:368] data -> label
I0812 11:11:16.404211 16535 net.cpp:120] Setting up data
I0812 11:11:16.404222 16535 hdf5_data_layer.cpp:80] Loading list of HDF5 filenames from: /home/abba/caffe/examples/simple/train_list.txt
I0812 11:11:16.404266 16535 hdf5_data_layer.cpp:94] Number of HDF5 files: 1
I0812 11:11:16.404278 16535 hdf5_data_layer.cpp:29] Loading HDF5 file: /home/abba/caffe/examples/simple/train.h5
I0812 11:11:16.405115 16535 hdf5_data_layer.cpp:68] Successully loaded 100 rows
I0812 11:11:16.405144 16535 net.cpp:127] Top shape: 5 2 (10)
I0812 11:11:16.405158 16535 net.cpp:127] Top shape: 5 1 (5)
I0812 11:11:16.405167 16535 net.cpp:133] Memory required for data: 60
I0812 11:11:16.405177 16535 layer_factory.hpp:74] Creating layer fc1
I0812 11:11:16.405194 16535 net.cpp:90] Creating Layer fc1
I0812 11:11:16.405205 16535 net.cpp:410] fc1 <- data
I0812 11:11:16.405225 16535 net.cpp:368] fc1 -> fc1
I0812 11:11:16.405241 16535 net.cpp:120] Setting up fc1
I0812 11:11:16.405628 16535 net.cpp:127] Top shape: 5 2 (10)
I0812 11:11:16.405640 16535 net.cpp:133] Memory required for data: 100
I0812 11:11:16.405658 16535 layer_factory.hpp:74] Creating layer loss
I0812 11:11:16.405673 16535 net.cpp:90] Creating Layer loss
I0812 11:11:16.405683 16535 net.cpp:410] loss <- fc1
I0812 11:11:16.405694 16535 net.cpp:410] loss <- label
I0812 11:11:16.405709 16535 net.cpp:368] loss -> loss
I0812 11:11:16.405722 16535 net.cpp:120] Setting up loss
…
I0812 11:11:16.406002 16535 solver.cpp:154] Creating test net (#0) specified by test_net file: /home/abba/caffe/examples/simple/train.prototxt
I0812 11:11:16.406028 16535 net.cpp:287] The NetState phase (1) differed from the phase (0) specified by a rule in layer data
I0812 11:11:16.406077 16535 net.cpp:42] Initializing net from parameters: 
name: "LogisticRegressionNet"
state {
  phase: TEST
}
layer {
  name: "data"
  type: "HDF5Data"
  top: "data"
  top: "label"
  include {
    phase: TEST
  }
  hdf5_data_param {
    source: "/home/abba/caffe/examples/simple/test_list.txt"
    batch_size: 5
  }
}
layer {
  name: "fc1"
  type: "InnerProduct"
  bottom: "data"
  top: "fc1"
  param {
    lr_mult: 1
    decay_mult: 1
  }
  param {
    lr_mult: 2
    decay_mult: 0
  }
  inner_product_param {
    num_output: 2
    weight_filler {
      type: "xavier"
    }
    bias_filler {
      type: "constant"
      value: 0
    }
  }
}
layer {
  name: "loss"
  type: "SoftmaxWithLoss"
  bottom: "fc1"
  bottom: "label"
  top: "loss"
}
layer {
  name: "accuracy"
  type: "Accuracy"
  bottom: "fc1"
  bottom: "label"
  top: "accuracy"
  include {
    phase: TEST
  }
}
I0812 11:11:16.406309 16535 net.cpp:67] Memory required for data: 0
I0812 11:11:16.406332 16535 layer_factory.hpp:74] Creating layer data
I0812 11:11:16.406347 16535 net.cpp:90] Creating Layer data
I0812 11:11:16.406358 16535 net.cpp:368] data -> data
I0812 11:11:16.406375 16535 net.cpp:368] data -> label
I0812 11:11:16.406390 16535 net.cpp:120] Setting up data
I0812 11:11:16.406400 16535 hdf5_data_layer.cpp:80] Loading list of HDF5 filenames from: /home/abba/caffe/examples/simple/test_list.txt
I0812 11:11:16.406421 16535 hdf5_data_layer.cpp:94] Number of HDF5 files: 1
I0812 11:11:16.406432 16535 hdf5_data_layer.cpp:29] Loading HDF5 file: /home/abba/caffe/examples/simple/test.h5
I0812 11:11:16.406716 16535 hdf5_data_layer.cpp:68] Successully loaded 30 rows
I0812 11:11:16.406738 16535 net.cpp:127] Top shape: 5 2 (10)
I0812 11:11:16.406749 16535 net.cpp:127] Top shape: 5 1 (5)
I0812 11:11:16.406759 16535 net.cpp:133] Memory required for data: 60
I0812 11:11:16.406769 16535 layer_factory.hpp:74] Creating layer label_data_1_split
I0812 11:11:16.406782 16535 net.cpp:90] Creating Layer label_data_1_split
I0812 11:11:16.406792 16535 net.cpp:410] label_data_1_split <- label
I0812 11:11:16.406806 16535 net.cpp:368] label_data_1_split -> label_data_1_split_0
I0812 11:11:16.406822 16535 net.cpp:368] label_data_1_split -> label_data_1_split_1
I0812 11:11:16.406836 16535 net.cpp:120] Setting up label_data_1_split
I0812 11:11:16.406851 16535 net.cpp:127] Top shape: 5 1 (5)
I0812 11:11:16.406860 16535 net.cpp:127] Top shape: 5 1 (5)
I0812 11:11:16.406869 16535 net.cpp:133] Memory required for data: 100
I0812 11:11:16.406877 16535 layer_factory.hpp:74] Creating layer fc1
I0812 11:11:16.406893 16535 net.cpp:90] Creating Layer fc1
I0812 11:11:16.406903 16535 net.cpp:410] fc1 <- data
I0812 11:11:16.406916 16535 net.cpp:368] fc1 -> fc1
I0812 11:11:16.406932 16535 net.cpp:120] Setting up fc1
I0812 11:11:16.406956 16535 net.cpp:127] Top shape: 5 2 (10)
I0812 11:11:16.406966 16535 net.cpp:133] Memory required for data: 140
I0812 11:11:16.406983 16535 layer_factory.hpp:74] Creating layer fc1_fc1_0_split
I0812 11:11:16.406996 16535 net.cpp:90] Creating Layer fc1_fc1_0_split
I0812 11:11:16.407006 16535 net.cpp:410] fc1_fc1_0_split <- fc1
I0812 11:11:16.407018 16535 net.cpp:368] fc1_fc1_0_split -> fc1_fc1_0_split_0
I0812 11:11:16.407032 16535 net.cpp:368] fc1_fc1_0_split -> fc1_fc1_0_split_1
I0812 11:11:16.407045 16535 net.cpp:120] Setting up fc1_fc1_0_split
I0812 11:11:16.407059 16535 net.cpp:127] Top shape: 5 2 (10)
I0812 11:11:16.407069 16535 net.cpp:127] Top shape: 5 2 (10)
I0812 11:11:16.407078 16535 net.cpp:133] Memory required for data: 220
I0812 11:11:16.407088 16535 layer_factory.hpp:74] Creating layer loss
I0812 11:11:16.407100 16535 net.cpp:90] Creating Layer loss
I0812 11:11:16.407110 16535 net.cpp:410] loss <- fc1_fc1_0_split_0
I0812 11:11:16.407136 16535 net.cpp:410] loss <- label_data_1_split_0
I0812 11:11:16.407150 16535 net.cpp:368] loss -> loss
I0812 11:11:16.407163 16535 net.cpp:120] Setting up loss
…
