…
I0812 10:52:22.817769 16254 net.cpp:287] The NetState phase (0) differed from the phase (1) specified by a rule in layer data
I0812 10:52:22.817796 16254 net.cpp:287] The NetState phase (0) differed from the phase (1) specified by a rule in layer accuracy
I0812 10:52:22.817841 16254 net.cpp:42] Initializing net from parameters: 
name: "LogisticRegressionNet"
state {
  phase: TRAIN
}
layer {
  name: "data"
  type: "HDF5Data"
  top: "data"
  top: "label"
  include {
    phase: TRAIN
  }
  hdf5_data_param {
    source: "/home/abba/caffe/examples/simple/train_list.txt"
    batch_size: 5
  }
}
layer {
  name: "fc1"
  type: "InnerProduct"
  bottom: "data"
  top: "fc1"
  param {
    lr_mult: 1
    decay_mult: 1
  }
  param {
    lr_mult: 2
    decay_mult: 0
  }
  inner_product_param {
    num_output: 2
    weight_filler {
      type: "xavier"
    }
    bias_filler {
      type: "constant"
      value: 0
    }
  }
}
layer {
  name: "loss"
  type: "SoftmaxWithLoss"
  bottom: "fc1"
  bottom: "label"
  top: "loss"
}
I0812 10:52:22.818001 16254 net.cpp:67] Memory required for data: 0
I0812 10:52:22.818024 16254 layer_factory.hpp:74] Creating layer data
I0812 10:52:22.818042 16254 net.cpp:90] Creating Layer data
I0812 10:52:22.818054 16254 net.cpp:368] data -> data
I0812 10:52:22.818076 16254 net.cpp:368] data -> label
I0812 10:52:22.818091 16254 net.cpp:120] Setting up data
I0812 10:52:22.818101 16254 hdf5_data_layer.cpp:80] Loading list of HDF5 filenames from: /home/abba/caffe/examples/simple/train_list.txt
I0812 10:52:22.818150 16254 hdf5_data_layer.cpp:94] Number of HDF5 files: 1
I0812 10:52:22.818161 16254 hdf5_data_layer.cpp:29] Loading HDF5 file: /home/abba/caffe/examples/simple/train.h5
I0812 10:52:22.819022 16254 hdf5_data_layer.cpp:68] Successully loaded 100 rows
I0812 10:52:22.819056 16254 net.cpp:127] Top shape: 5 2 (10)
I0812 10:52:22.819068 16254 net.cpp:127] Top shape: 5 1 (5)
I0812 10:52:22.819077 16254 net.cpp:133] Memory required for data: 60
I0812 10:52:22.819088 16254 layer_factory.hpp:74] Creating layer fc1
I0812 10:52:22.819106 16254 net.cpp:90] Creating Layer fc1
I0812 10:52:22.819116 16254 net.cpp:410] fc1 <- data
I0812 10:52:22.819136 16254 net.cpp:368] fc1 -> fc1
I0812 10:52:22.819154 16254 net.cpp:120] Setting up fc1
I0812 10:52:22.819535 16254 net.cpp:127] Top shape: 5 2 (10)
I0812 10:52:22.819546 16254 net.cpp:133] Memory required for data: 100
I0812 10:52:22.819563 16254 layer_factory.hpp:74] Creating layer loss
I0812 10:52:22.819578 16254 net.cpp:90] Creating Layer loss
I0812 10:52:22.819588 16254 net.cpp:410] loss <- fc1
I0812 10:52:22.819600 16254 net.cpp:410] loss <- label
I0812 10:52:22.819613 16254 net.cpp:368] loss -> loss
I0812 10:52:22.819628 16254 net.cpp:120] Setting up loss
…
I0812 10:52:22.819926 16254 solver.cpp:154] Creating test net (#0) specified by test_net file: /home/abba/caffe/examples/simple/train.prototxt
I0812 10:52:22.819952 16254 net.cpp:287] The NetState phase (1) differed from the phase (0) specified by a rule in layer data
I0812 10:52:22.820006 16254 net.cpp:42] Initializing net from parameters: 
name: "LogisticRegressionNet"
state {
  phase: TEST
}
layer {
  name: "data"
  type: "HDF5Data"
  top: "data"
  top: "label"
  include {
    phase: TEST
  }
  hdf5_data_param {
    source: "/home/abba/caffe/examples/simple/test_list.txt"
    batch_size: 5
  }
}
layer {
  name: "fc1"
  type: "InnerProduct"
  bottom: "data"
  top: "fc1"
  param {
    lr_mult: 1
    decay_mult: 1
  }
  param {
    lr_mult: 2
    decay_mult: 0
  }
  inner_product_param {
    num_output: 2
    weight_filler {
      type: "xavier"
    }
    bias_filler {
      type: "constant"
      value: 0
    }
  }
}
layer {
  name: "loss"
  type: "SoftmaxWithLoss"
  bottom: "fc1"
  bottom: "label"
  top: "loss"
}
layer {
  name: "accuracy"
  type: "Accuracy"
  bottom: "fc1"
  bottom: "label"
  top: "accuracy"
  include {
    phase: TEST
  }
}
I0812 10:52:22.820243 16254 net.cpp:67] Memory required for data: 0
I0812 10:52:22.820266 16254 layer_factory.hpp:74] Creating layer data
I0812 10:52:22.820281 16254 net.cpp:90] Creating Layer data
I0812 10:52:22.820291 16254 net.cpp:368] data -> data
I0812 10:52:22.820309 16254 net.cpp:368] data -> label
I0812 10:52:22.820323 16254 net.cpp:120] Setting up data
I0812 10:52:22.820333 16254 hdf5_data_layer.cpp:80] Loading list of HDF5 filenames from: /home/abba/caffe/examples/simple/test_list.txt
I0812 10:52:22.820356 16254 hdf5_data_layer.cpp:94] Number of HDF5 files: 1
I0812 10:52:22.820368 16254 hdf5_data_layer.cpp:29] Loading HDF5 file: /home/abba/caffe/examples/simple/test.h5
I0812 10:52:22.820685 16254 hdf5_data_layer.cpp:68] Successully loaded 30 rows
I0812 10:52:22.820708 16254 net.cpp:127] Top shape: 5 2 (10)
I0812 10:52:22.820719 16254 net.cpp:127] Top shape: 5 1 (5)
I0812 10:52:22.820729 16254 net.cpp:133] Memory required for data: 60
I0812 10:52:22.820739 16254 layer_factory.hpp:74] Creating layer label_data_1_split
I0812 10:52:22.820754 16254 net.cpp:90] Creating Layer label_data_1_split
I0812 10:52:22.820765 16254 net.cpp:410] label_data_1_split <- label
I0812 10:52:22.820777 16254 net.cpp:368] label_data_1_split -> label_data_1_split_0
I0812 10:52:22.820793 16254 net.cpp:368] label_data_1_split -> label_data_1_split_1
I0812 10:52:22.820807 16254 net.cpp:120] Setting up label_data_1_split
I0812 10:52:22.820822 16254 net.cpp:127] Top shape: 5 1 (5)
I0812 10:52:22.820832 16254 net.cpp:127] Top shape: 5 1 (5)
I0812 10:52:22.820842 16254 net.cpp:133] Memory required for data: 100
I0812 10:52:22.820852 16254 layer_factory.hpp:74] Creating layer fc1
I0812 10:52:22.820866 16254 net.cpp:90] Creating Layer fc1
I0812 10:52:22.820876 16254 net.cpp:410] fc1 <- data
I0812 10:52:22.820891 16254 net.cpp:368] fc1 -> fc1
I0812 10:52:22.820906 16254 net.cpp:120] Setting up fc1
I0812 10:52:22.820933 16254 net.cpp:127] Top shape: 5 2 (10)
I0812 10:52:22.820943 16254 net.cpp:133] Memory required for data: 140
I0812 10:52:22.820960 16254 layer_factory.hpp:74] Creating layer fc1_fc1_0_split
I0812 10:52:22.820973 16254 net.cpp:90] Creating Layer fc1_fc1_0_split
I0812 10:52:22.820982 16254 net.cpp:410] fc1_fc1_0_split <- fc1
I0812 10:52:22.820996 16254 net.cpp:368] fc1_fc1_0_split -> fc1_fc1_0_split_0
I0812 10:52:22.821009 16254 net.cpp:368] fc1_fc1_0_split -> fc1_fc1_0_split_1
I0812 10:52:22.821022 16254 net.cpp:120] Setting up fc1_fc1_0_split
I0812 10:52:22.821035 16254 net.cpp:127] Top shape: 5 2 (10)
I0812 10:52:22.821046 16254 net.cpp:127] Top shape: 5 2 (10)
I0812 10:52:22.821055 16254 net.cpp:133] Memory required for data: 220
I0812 10:52:22.821064 16254 layer_factory.hpp:74] Creating layer loss
I0812 10:52:22.821077 16254 net.cpp:90] Creating Layer loss
I0812 10:52:22.821087 16254 net.cpp:410] loss <- fc1_fc1_0_split_0
I0812 10:52:22.821120 16254 net.cpp:410] loss <- label_data_1_split_0
I0812 10:52:22.821133 16254 net.cpp:368] loss -> loss
I0812 10:52:22.821146 16254 net.cpp:120] Setting up loss
…
