…
I0812 10:49:41.651378 16199 net.cpp:287] The NetState phase (0) differed from the phase (1) specified by a rule in layer data
I0812 10:49:41.651408 16199 net.cpp:287] The NetState phase (0) differed from the phase (1) specified by a rule in layer accuracy
I0812 10:49:41.651484 16199 net.cpp:42] Initializing net from parameters: 
name: "LogisticRegressionNet"
state {
  phase: TRAIN
}
layer {
  name: "data"
  type: "HDF5Data"
  top: "data"
  top: "label"
  include {
    phase: TRAIN
  }
  hdf5_data_param {
    source: "/home/abba/caffe/examples/simple/train_list.txt"
    batch_size: 5
  }
}
layer {
  name: "fc1"
  type: "InnerProduct"
  bottom: "data"
  top: "fc1"
  param {
    lr_mult: 1
    decay_mult: 1
  }
  param {
    lr_mult: 2
    decay_mult: 0
  }
  inner_product_param {
    num_output: 2
    weight_filler {
      type: "xavier"
    }
    bias_filler {
      type: "constant"
      value: 0
    }
  }
}
layer {
  name: "loss"
  type: "SoftmaxWithLoss"
  bottom: "fc1"
  bottom: "label"
  top: "loss"
}
I0812 10:49:41.651674 16199 net.cpp:67] Memory required for data: 0
I0812 10:49:41.651700 16199 layer_factory.hpp:74] Creating layer data
I0812 10:49:41.651717 16199 net.cpp:90] Creating Layer data
I0812 10:49:41.651731 16199 net.cpp:368] data -> data
I0812 10:49:41.651753 16199 net.cpp:368] data -> label
I0812 10:49:41.651768 16199 net.cpp:120] Setting up data
I0812 10:49:41.651779 16199 hdf5_data_layer.cpp:80] Loading list of HDF5 filenames from: /home/abba/caffe/examples/simple/train_list.txt
I0812 10:49:41.651826 16199 hdf5_data_layer.cpp:94] Number of HDF5 files: 1
I0812 10:49:41.651839 16199 hdf5_data_layer.cpp:29] Loading HDF5 file: /home/abba/caffe/examples/simple/train.h5
I0812 10:49:41.652858 16199 hdf5_data_layer.cpp:68] Successully loaded 100 rows
I0812 10:49:41.652906 16199 net.cpp:127] Top shape: 5 2 (10)
I0812 10:49:41.652920 16199 net.cpp:127] Top shape: 5 1 (5)
I0812 10:49:41.652928 16199 net.cpp:133] Memory required for data: 60
I0812 10:49:41.652940 16199 layer_factory.hpp:74] Creating layer fc1
I0812 10:49:41.652962 16199 net.cpp:90] Creating Layer fc1
I0812 10:49:41.652973 16199 net.cpp:410] fc1 <- data
I0812 10:49:41.652995 16199 net.cpp:368] fc1 -> fc1
I0812 10:49:41.653013 16199 net.cpp:120] Setting up fc1
I0812 10:49:41.653398 16199 net.cpp:127] Top shape: 5 2 (10)
I0812 10:49:41.653414 16199 net.cpp:133] Memory required for data: 100
I0812 10:49:41.653431 16199 layer_factory.hpp:74] Creating layer loss
I0812 10:49:41.653456 16199 net.cpp:90] Creating Layer loss
I0812 10:49:41.653466 16199 net.cpp:410] loss <- fc1
I0812 10:49:41.653478 16199 net.cpp:410] loss <- label
I0812 10:49:41.653492 16199 net.cpp:368] loss -> loss
I0812 10:49:41.653506 16199 net.cpp:120] Setting up loss
…
I0812 10:49:41.653831 16199 solver.cpp:154] Creating test net (#0) specified by test_net file: /home/abba/caffe/examples/simple/train.prototxt
I0812 10:49:41.653861 16199 net.cpp:287] The NetState phase (1) differed from the phase (0) specified by a rule in layer data
I0812 10:49:41.653921 16199 net.cpp:42] Initializing net from parameters: 
name: "LogisticRegressionNet"
state {
  phase: TEST
}
layer {
  name: "data"
  type: "HDF5Data"
  top: "data"
  top: "label"
  include {
    phase: TEST
  }
  hdf5_data_param {
    source: "/home/abba/caffe/examples/simple/test_list.txt"
    batch_size: 5
  }
}
layer {
  name: "fc1"
  type: "InnerProduct"
  bottom: "data"
  top: "fc1"
  param {
    lr_mult: 1
    decay_mult: 1
  }
  param {
    lr_mult: 2
    decay_mult: 0
  }
  inner_product_param {
    num_output: 2
    weight_filler {
      type: "xavier"
    }
    bias_filler {
      type: "constant"
      value: 0
    }
  }
}
layer {
  name: "loss"
  type: "SoftmaxWithLoss"
  bottom: "fc1"
  bottom: "label"
  top: "loss"
}
layer {
  name: "accuracy"
  type: "Accuracy"
  bottom: "fc1"
  bottom: "label"
  top: "accuracy"
  include {
    phase: TEST
  }
}
I0812 10:49:41.654141 16199 net.cpp:67] Memory required for data: 0
I0812 10:49:41.654166 16199 layer_factory.hpp:74] Creating layer data
I0812 10:49:41.654184 16199 net.cpp:90] Creating Layer data
I0812 10:49:41.654196 16199 net.cpp:368] data -> data
I0812 10:49:41.654216 16199 net.cpp:368] data -> label
I0812 10:49:41.654230 16199 net.cpp:120] Setting up data
I0812 10:49:41.654242 16199 hdf5_data_layer.cpp:80] Loading list of HDF5 filenames from: /home/abba/caffe/examples/simple/test_list.txt
I0812 10:49:41.654266 16199 hdf5_data_layer.cpp:94] Number of HDF5 files: 1
I0812 10:49:41.654278 16199 hdf5_data_layer.cpp:29] Loading HDF5 file: /home/abba/caffe/examples/simple/test.h5
I0812 10:49:41.654665 16199 hdf5_data_layer.cpp:68] Successully loaded 30 rows
I0812 10:49:41.654692 16199 net.cpp:127] Top shape: 5 2 (10)
I0812 10:49:41.654705 16199 net.cpp:127] Top shape: 5 1 (5)
I0812 10:49:41.654712 16199 net.cpp:133] Memory required for data: 60
I0812 10:49:41.654722 16199 layer_factory.hpp:74] Creating layer label_data_1_split
I0812 10:49:41.654739 16199 net.cpp:90] Creating Layer label_data_1_split
I0812 10:49:41.654757 16199 net.cpp:410] label_data_1_split <- label
I0812 10:49:41.654772 16199 net.cpp:368] label_data_1_split -> label_data_1_split_0
I0812 10:49:41.654789 16199 net.cpp:368] label_data_1_split -> label_data_1_split_1
I0812 10:49:41.654803 16199 net.cpp:120] Setting up label_data_1_split
I0812 10:49:41.654817 16199 net.cpp:127] Top shape: 5 1 (5)
I0812 10:49:41.654827 16199 net.cpp:127] Top shape: 5 1 (5)
I0812 10:49:41.654834 16199 net.cpp:133] Memory required for data: 100
I0812 10:49:41.654844 16199 layer_factory.hpp:74] Creating layer fc1
I0812 10:49:41.654867 16199 net.cpp:90] Creating Layer fc1
I0812 10:49:41.654878 16199 net.cpp:410] fc1 <- data
I0812 10:49:41.654894 16199 net.cpp:368] fc1 -> fc1
I0812 10:49:41.654911 16199 net.cpp:120] Setting up fc1
I0812 10:49:41.654939 16199 net.cpp:127] Top shape: 5 2 (10)
I0812 10:49:41.654950 16199 net.cpp:133] Memory required for data: 140
I0812 10:49:41.654976 16199 layer_factory.hpp:74] Creating layer fc1_fc1_0_split
I0812 10:49:41.654989 16199 net.cpp:90] Creating Layer fc1_fc1_0_split
I0812 10:49:41.654999 16199 net.cpp:410] fc1_fc1_0_split <- fc1
I0812 10:49:41.655011 16199 net.cpp:368] fc1_fc1_0_split -> fc1_fc1_0_split_0
I0812 10:49:41.655025 16199 net.cpp:368] fc1_fc1_0_split -> fc1_fc1_0_split_1
I0812 10:49:41.655040 16199 net.cpp:120] Setting up fc1_fc1_0_split
I0812 10:49:41.655053 16199 net.cpp:127] Top shape: 5 2 (10)
I0812 10:49:41.655071 16199 net.cpp:127] Top shape: 5 2 (10)
I0812 10:49:41.655081 16199 net.cpp:133] Memory required for data: 220
I0812 10:49:41.655089 16199 layer_factory.hpp:74] Creating layer loss
I0812 10:49:41.655102 16199 net.cpp:90] Creating Layer loss
I0812 10:49:41.655112 16199 net.cpp:410] loss <- fc1_fc1_0_split_0
I0812 10:49:41.655153 16199 net.cpp:410] loss <- label_data_1_split_0
I0812 10:49:41.655169 16199 net.cpp:368] loss -> loss
I0812 10:49:41.655184 16199 net.cpp:120] Setting up loss
…
