…
I0812 11:09:50.962231 16480 net.cpp:287] The NetState phase (0) differed from the phase (1) specified by a rule in layer data
I0812 11:09:50.962249 16480 net.cpp:287] The NetState phase (0) differed from the phase (1) specified by a rule in layer accuracy
I0812 11:09:50.962291 16480 net.cpp:42] Initializing net from parameters: 
name: "LogisticRegressionNet"
state {
  phase: TRAIN
}
layer {
  name: "data"
  type: "HDF5Data"
  top: "data"
  top: "label"
  include {
    phase: TRAIN
  }
  hdf5_data_param {
    source: "/home/abba/caffe/examples/simple/train_list.txt"
    batch_size: 5
  }
}
layer {
  name: "fc1"
  type: "InnerProduct"
  bottom: "data"
  top: "fc1"
  param {
    lr_mult: 1
    decay_mult: 1
  }
  param {
    lr_mult: 2
    decay_mult: 0
  }
  inner_product_param {
    num_output: 2
    weight_filler {
      type: "xavier"
    }
    bias_filler {
      type: "constant"
      value: 0
    }
  }
}
layer {
  name: "loss"
  type: "SoftmaxWithLoss"
  bottom: "fc1"
  bottom: "label"
  top: "loss"
}
I0812 11:09:50.962455 16480 net.cpp:67] Memory required for data: 0
I0812 11:09:50.962481 16480 layer_factory.hpp:74] Creating layer data
I0812 11:09:50.962497 16480 net.cpp:90] Creating Layer data
I0812 11:09:50.962509 16480 net.cpp:368] data -> data
I0812 11:09:50.962530 16480 net.cpp:368] data -> label
I0812 11:09:50.962545 16480 net.cpp:120] Setting up data
I0812 11:09:50.962556 16480 hdf5_data_layer.cpp:80] Loading list of HDF5 filenames from: /home/abba/caffe/examples/simple/train_list.txt
I0812 11:09:50.962601 16480 hdf5_data_layer.cpp:94] Number of HDF5 files: 1
I0812 11:09:50.962613 16480 hdf5_data_layer.cpp:29] Loading HDF5 file: /home/abba/caffe/examples/simple/train.h5
I0812 11:09:50.963479 16480 hdf5_data_layer.cpp:68] Successully loaded 100 rows
I0812 11:09:50.963513 16480 net.cpp:127] Top shape: 5 2 (10)
I0812 11:09:50.963526 16480 net.cpp:127] Top shape: 5 1 (5)
I0812 11:09:50.963534 16480 net.cpp:133] Memory required for data: 60
I0812 11:09:50.963546 16480 layer_factory.hpp:74] Creating layer fc1
I0812 11:09:50.963565 16480 net.cpp:90] Creating Layer fc1
I0812 11:09:50.963575 16480 net.cpp:410] fc1 <- data
I0812 11:09:50.963595 16480 net.cpp:368] fc1 -> fc1
I0812 11:09:50.963613 16480 net.cpp:120] Setting up fc1
I0812 11:09:50.963991 16480 net.cpp:127] Top shape: 5 2 (10)
I0812 11:09:50.964004 16480 net.cpp:133] Memory required for data: 100
I0812 11:09:50.964021 16480 layer_factory.hpp:74] Creating layer loss
I0812 11:09:50.964036 16480 net.cpp:90] Creating Layer loss
I0812 11:09:50.964046 16480 net.cpp:410] loss <- fc1
I0812 11:09:50.964058 16480 net.cpp:410] loss <- label
I0812 11:09:50.964072 16480 net.cpp:368] loss -> loss
I0812 11:09:50.964087 16480 net.cpp:120] Setting up loss
…
I0812 11:09:50.964380 16480 solver.cpp:154] Creating test net (#0) specified by test_net file: /home/abba/caffe/examples/simple/train.prototxt
I0812 11:09:50.964406 16480 net.cpp:287] The NetState phase (1) differed from the phase (0) specified by a rule in layer data
I0812 11:09:50.964457 16480 net.cpp:42] Initializing net from parameters: 
name: "LogisticRegressionNet"
state {
  phase: TEST
}
layer {
  name: "data"
  type: "HDF5Data"
  top: "data"
  top: "label"
  include {
    phase: TEST
  }
  hdf5_data_param {
    source: "/home/abba/caffe/examples/simple/test_list.txt"
    batch_size: 5
  }
}
layer {
  name: "fc1"
  type: "InnerProduct"
  bottom: "data"
  top: "fc1"
  param {
    lr_mult: 1
    decay_mult: 1
  }
  param {
    lr_mult: 2
    decay_mult: 0
  }
  inner_product_param {
    num_output: 2
    weight_filler {
      type: "xavier"
    }
    bias_filler {
      type: "constant"
      value: 0
    }
  }
}
layer {
  name: "loss"
  type: "SoftmaxWithLoss"
  bottom: "fc1"
  bottom: "label"
  top: "loss"
}
layer {
  name: "accuracy"
  type: "Accuracy"
  bottom: "fc1"
  bottom: "label"
  top: "accuracy"
  include {
    phase: TEST
  }
}
I0812 11:09:50.964681 16480 net.cpp:67] Memory required for data: 0
I0812 11:09:50.964706 16480 layer_factory.hpp:74] Creating layer data
I0812 11:09:50.964722 16480 net.cpp:90] Creating Layer data
I0812 11:09:50.964733 16480 net.cpp:368] data -> data
I0812 11:09:50.964752 16480 net.cpp:368] data -> label
I0812 11:09:50.964766 16480 net.cpp:120] Setting up data
I0812 11:09:50.964777 16480 hdf5_data_layer.cpp:80] Loading list of HDF5 filenames from: /home/abba/caffe/examples/simple/test_list.txt
I0812 11:09:50.964800 16480 hdf5_data_layer.cpp:94] Number of HDF5 files: 1
I0812 11:09:50.964812 16480 hdf5_data_layer.cpp:29] Loading HDF5 file: /home/abba/caffe/examples/simple/test.h5
I0812 11:09:50.965132 16480 hdf5_data_layer.cpp:68] Successully loaded 30 rows
I0812 11:09:50.965154 16480 net.cpp:127] Top shape: 5 2 (10)
I0812 11:09:50.965167 16480 net.cpp:127] Top shape: 5 1 (5)
I0812 11:09:50.965174 16480 net.cpp:133] Memory required for data: 60
I0812 11:09:50.965185 16480 layer_factory.hpp:74] Creating layer label_data_1_split
I0812 11:09:50.965200 16480 net.cpp:90] Creating Layer label_data_1_split
I0812 11:09:50.965210 16480 net.cpp:410] label_data_1_split <- label
I0812 11:09:50.965224 16480 net.cpp:368] label_data_1_split -> label_data_1_split_0
I0812 11:09:50.965240 16480 net.cpp:368] label_data_1_split -> label_data_1_split_1
I0812 11:09:50.965255 16480 net.cpp:120] Setting up label_data_1_split
I0812 11:09:50.965268 16480 net.cpp:127] Top shape: 5 1 (5)
I0812 11:09:50.965279 16480 net.cpp:127] Top shape: 5 1 (5)
I0812 11:09:50.965287 16480 net.cpp:133] Memory required for data: 100
I0812 11:09:50.965296 16480 layer_factory.hpp:74] Creating layer fc1
I0812 11:09:50.965312 16480 net.cpp:90] Creating Layer fc1
I0812 11:09:50.965322 16480 net.cpp:410] fc1 <- data
I0812 11:09:50.965337 16480 net.cpp:368] fc1 -> fc1
I0812 11:09:50.965353 16480 net.cpp:120] Setting up fc1
I0812 11:09:50.965379 16480 net.cpp:127] Top shape: 5 2 (10)
I0812 11:09:50.965389 16480 net.cpp:133] Memory required for data: 140
I0812 11:09:50.965406 16480 layer_factory.hpp:74] Creating layer fc1_fc1_0_split
I0812 11:09:50.965418 16480 net.cpp:90] Creating Layer fc1_fc1_0_split
I0812 11:09:50.965427 16480 net.cpp:410] fc1_fc1_0_split <- fc1
I0812 11:09:50.965451 16480 net.cpp:368] fc1_fc1_0_split -> fc1_fc1_0_split_0
I0812 11:09:50.965466 16480 net.cpp:368] fc1_fc1_0_split -> fc1_fc1_0_split_1
I0812 11:09:50.965481 16480 net.cpp:120] Setting up fc1_fc1_0_split
I0812 11:09:50.965493 16480 net.cpp:127] Top shape: 5 2 (10)
I0812 11:09:50.965504 16480 net.cpp:127] Top shape: 5 2 (10)
I0812 11:09:50.965512 16480 net.cpp:133] Memory required for data: 220
I0812 11:09:50.965522 16480 layer_factory.hpp:74] Creating layer loss
I0812 11:09:50.965534 16480 net.cpp:90] Creating Layer loss
I0812 11:09:50.965544 16480 net.cpp:410] loss <- fc1_fc1_0_split_0
I0812 11:09:50.965575 16480 net.cpp:410] loss <- label_data_1_split_0
I0812 11:09:50.965590 16480 net.cpp:368] loss -> loss
I0812 11:09:50.965602 16480 net.cpp:120] Setting up loss
…
