…
I0812 18:59:59.202179 21869 net.cpp:287] The NetState phase (0) differed from the phase (1) specified by a rule in layer data
I0812 18:59:59.202208 21869 net.cpp:287] The NetState phase (0) differed from the phase (1) specified by a rule in layer accuracy
I0812 18:59:59.202260 21869 net.cpp:42] Initializing net from parameters: 
name: "ClassifyFromFeaturesNet"
state {
  phase: TRAIN
}
layer {
  name: "data"
  type: "HDF5Data"
  top: "data"
  top: "label"
  include {
    phase: TRAIN
  }
  hdf5_data_param {
    source: "/home/abba/caffe/examples/feature_input/train_list.txt"
    batch_size: 5
  }
}
layer {
  name: "fc1"
  type: "InnerProduct"
  bottom: "data"
  top: "fc1"
  param {
    lr_mult: 1
    decay_mult: 1
  }
  param {
    lr_mult: 2
    decay_mult: 0
  }
  inner_product_param {
    num_output: 10
    weight_filler {
      type: "xavier"
    }
    bias_filler {
      type: "constant"
      value: 0
    }
  }
}
layer {
  name: "loss"
  type: "SoftmaxWithLoss"
  bottom: "fc1"
  bottom: "label"
  top: "loss"
}
I0812 19:00:01.362063 21869 net.cpp:67] Memory required for data: 0
I0812 19:00:01.362109 21869 layer_factory.hpp:74] Creating layer data
I0812 19:00:01.362130 21869 net.cpp:90] Creating Layer data
I0812 19:00:01.362138 21869 net.cpp:368] data -> data
I0812 19:00:01.362159 21869 net.cpp:368] data -> label
I0812 19:00:01.362169 21869 net.cpp:120] Setting up data
I0812 19:00:05.092571 21869 hdf5_data_layer.cpp:80] Loading list of HDF5 filenames from: /home/abba/caffe/examples/feature_input/train_list.txt
I0812 19:00:10.747978 21869 hdf5_data_layer.cpp:94] Number of HDF5 files: 1
I0812 19:00:17.172569 21869 hdf5_data_layer.cpp:29] Loading HDF5 file: /home/abba/caffe/examples/feature_input/train.h5
I0812 19:00:21.893501 21869 hdf5_data_layer.cpp:68] Successully loaded 50 rows
I0812 19:00:21.893543 21869 net.cpp:127] Top shape: 5 30 (150)
I0812 19:00:21.893551 21869 net.cpp:127] Top shape: 5 1 (5)
I0812 19:22:25.370766 21869 net.cpp:133] Memory required for data: 620
I0812 19:22:25.370816 21869 layer_factory.hpp:74] Creating layer fc1
I0812 19:22:25.370842 21869 net.cpp:90] Creating Layer fc1
I0812 19:22:25.370849 21869 net.cpp:410] fc1 <- data
I0812 19:22:25.370877 21869 net.cpp:368] fc1 -> fc1
I0812 19:22:25.370892 21869 net.cpp:120] Setting up fc1
I0812 19:22:25.371296 21869 net.cpp:127] Top shape: 5 10 (50)
I0812 19:23:49.117295 21869 net.cpp:133] Memory required for data: 820
I0812 19:23:49.117357 21869 layer_factory.hpp:74] Creating layer loss
I0812 19:23:49.117377 21869 net.cpp:90] Creating Layer loss
I0812 19:23:49.117384 21869 net.cpp:410] loss <- fc1
I0812 19:23:49.117394 21869 net.cpp:410] loss <- label
I0812 19:23:49.117403 21869 net.cpp:368] loss -> loss
I0812 19:23:49.117413 21869 net.cpp:120] Setting up loss
…
I0812 19:24:41.509157 21869 solver.cpp:154] Creating test net (#0) specified by test_net file: /home/abba/caffe/examples/feature_input/train.prototxt
I0812 19:24:41.509191 21869 net.cpp:287] The NetState phase (1) differed from the phase (0) specified by a rule in layer data
I0812 19:24:41.509269 21869 net.cpp:42] Initializing net from parameters: 
name: "ClassifyFromFeaturesNet"
state {
  phase: TEST
}
layer {
  name: "data"
  type: "HDF5Data"
  top: "data"
  top: "label"
  include {
    phase: TEST
  }
  hdf5_data_param {
    source: "/home/abba/caffe/examples/feature_input/test_list.txt"
    batch_size: 5
  }
}
layer {
  name: "fc1"
  type: "InnerProduct"
  bottom: "data"
  top: "fc1"
  param {
    lr_mult: 1
    decay_mult: 1
  }
  param {
    lr_mult: 2
    decay_mult: 0
  }
  inner_product_param {
    num_output: 10
    weight_filler {
      type: "xavier"
    }
    bias_filler {
      type: "constant"
      value: 0
    }
  }
}
layer {
  name: "loss"
  type: "SoftmaxWithLoss"
  bottom: "fc1"
  bottom: "label"
  top: "loss"
}
layer {
  name: "accuracy"
  type: "Accuracy"
  bottom: "fc1"
  bottom: "label"
  top: "accuracy"
  include {
    phase: TEST
  }
}
I0812 19:24:49.132899 21869 net.cpp:67] Memory required for data: 0
I0812 19:24:49.132941 21869 layer_factory.hpp:74] Creating layer data
I0812 19:24:49.132962 21869 net.cpp:90] Creating Layer data
I0812 19:24:49.132971 21869 net.cpp:368] data -> data
I0812 19:24:49.132988 21869 net.cpp:368] data -> label
I0812 19:24:49.132998 21869 net.cpp:120] Setting up data
I0812 19:24:54.389853 21869 hdf5_data_layer.cpp:80] Loading list of HDF5 filenames from: /home/abba/caffe/examples/feature_input/test_list.txt
I0812 19:24:59.807835 21869 hdf5_data_layer.cpp:94] Number of HDF5 files: 1
I0812 19:25:03.391386 21869 hdf5_data_layer.cpp:29] Loading HDF5 file: /home/abba/caffe/examples/feature_input/test.h5
I0812 19:25:07.740738 21869 hdf5_data_layer.cpp:68] Successully loaded 50 rows
I0812 19:25:07.740779 21869 net.cpp:127] Top shape: 5 30 (150)
I0812 19:25:07.740788 21869 net.cpp:127] Top shape: 5 1 (5)
I0812 19:25:13.303565 21869 net.cpp:133] Memory required for data: 620
I0812 19:25:13.303598 21869 layer_factory.hpp:74] Creating layer label_data_1_split
I0812 19:25:13.303618 21869 net.cpp:90] Creating Layer label_data_1_split
I0812 19:25:13.303625 21869 net.cpp:410] label_data_1_split <- label
I0812 19:25:13.303639 21869 net.cpp:368] label_data_1_split -> label_data_1_split_0
I0812 19:25:13.303653 21869 net.cpp:368] label_data_1_split -> label_data_1_split_1
I0812 19:25:13.303663 21869 net.cpp:120] Setting up label_data_1_split
I0812 19:25:13.303678 21869 net.cpp:127] Top shape: 5 1 (5)
I0812 19:25:13.303683 21869 net.cpp:127] Top shape: 5 1 (5)
I0812 19:25:33.834542 21869 net.cpp:133] Memory required for data: 660
I0812 19:25:33.834591 21869 layer_factory.hpp:74] Creating layer fc1
I0812 19:25:33.834619 21869 net.cpp:90] Creating Layer fc1
I0812 19:25:33.834626 21869 net.cpp:410] fc1 <- data
I0812 19:25:33.834645 21869 net.cpp:368] fc1 -> fc1
I0812 19:25:33.834658 21869 net.cpp:120] Setting up fc1
I0812 19:25:33.834703 21869 net.cpp:127] Top shape: 5 10 (50)
I0812 19:25:36.459367 21869 net.cpp:133] Memory required for data: 860
I0812 19:25:36.459416 21869 layer_factory.hpp:74] Creating layer fc1_fc1_0_split
I0812 19:25:36.459432 21869 net.cpp:90] Creating Layer fc1_fc1_0_split
I0812 19:25:36.459439 21869 net.cpp:410] fc1_fc1_0_split <- fc1
I0812 19:25:36.459452 21869 net.cpp:368] fc1_fc1_0_split -> fc1_fc1_0_split_0
I0812 19:25:36.459465 21869 net.cpp:368] fc1_fc1_0_split -> fc1_fc1_0_split_1
I0812 19:25:36.459473 21869 net.cpp:120] Setting up fc1_fc1_0_split
I0812 19:25:36.459487 21869 net.cpp:127] Top shape: 5 10 (50)
I0812 19:25:36.459493 21869 net.cpp:127] Top shape: 5 10 (50)
I0812 19:25:38.395669 21869 net.cpp:133] Memory required for data: 1260
I0812 19:25:38.395700 21869 layer_factory.hpp:74] Creating layer loss
I0812 19:25:38.395723 21869 net.cpp:90] Creating Layer loss
I0812 19:25:38.395731 21869 net.cpp:410] loss <- fc1_fc1_0_split_0
I0812 19:25:38.395743 21869 net.cpp:410] loss <- label_data_1_split_0
I0812 19:25:38.395752 21869 net.cpp:368] loss -> loss
…
