…
I0812 10:54:05.554360 16297 net.cpp:287] The NetState phase (0) differed from the phase (1) specified by a rule in layer data
I0812 10:54:05.554386 16297 net.cpp:287] The NetState phase (0) differed from the phase (1) specified by a rule in layer accuracy
I0812 10:54:05.554445 16297 net.cpp:42] Initializing net from parameters: 
name: "LogisticRegressionNet"
state {
  phase: TRAIN
}
layer {
  name: "data"
  type: "HDF5Data"
  top: "data"
  top: "label"
  include {
    phase: TRAIN
  }
  hdf5_data_param {
    source: "/home/abba/caffe/examples/simple/train_list.txt"
    batch_size: 5
  }
}
layer {
  name: "fc1"
  type: "InnerProduct"
  bottom: "data"
  top: "fc1"
  param {
    lr_mult: 1
    decay_mult: 1
  }
  param {
    lr_mult: 2
    decay_mult: 0
  }
  inner_product_param {
    num_output: 2
    weight_filler {
      type: "xavier"
    }
    bias_filler {
      type: "constant"
      value: 0
    }
  }
}
layer {
  name: "loss"
  type: "SoftmaxWithLoss"
  bottom: "fc1"
  bottom: "label"
  top: "loss"
}
I0812 10:54:05.554646 16297 net.cpp:67] Memory required for data: 0
I0812 10:54:05.554695 16297 layer_factory.hpp:74] Creating layer data
I0812 10:54:05.554726 16297 net.cpp:90] Creating Layer data
I0812 10:54:05.554744 16297 net.cpp:368] data -> data
I0812 10:54:05.554793 16297 net.cpp:368] data -> label
I0812 10:54:05.554811 16297 net.cpp:120] Setting up data
I0812 10:54:05.554826 16297 hdf5_data_layer.cpp:80] Loading list of HDF5 filenames from: /home/abba/caffe/examples/simple/train_list.txt
I0812 10:54:05.554977 16297 hdf5_data_layer.cpp:94] Number of HDF5 files: 1
I0812 10:54:05.555188 16297 hdf5_data_layer.cpp:29] Loading HDF5 file: /home/abba/caffe/examples/simple/train.h5
I0812 10:54:05.556563 16297 hdf5_data_layer.cpp:68] Successully loaded 100 rows
I0812 10:54:05.556605 16297 net.cpp:127] Top shape: 5 2 (10)
I0812 10:54:05.556618 16297 net.cpp:127] Top shape: 5 1 (5)
I0812 10:54:05.556627 16297 net.cpp:133] Memory required for data: 60
I0812 10:54:05.556640 16297 layer_factory.hpp:74] Creating layer fc1
I0812 10:54:05.556663 16297 net.cpp:90] Creating Layer fc1
I0812 10:54:05.556674 16297 net.cpp:410] fc1 <- data
I0812 10:54:05.556696 16297 net.cpp:368] fc1 -> fc1
I0812 10:54:05.556713 16297 net.cpp:120] Setting up fc1
I0812 10:54:05.557097 16297 net.cpp:127] Top shape: 5 2 (10)
I0812 10:54:05.557109 16297 net.cpp:133] Memory required for data: 100
I0812 10:54:05.557127 16297 layer_factory.hpp:74] Creating layer loss
I0812 10:54:05.557142 16297 net.cpp:90] Creating Layer loss
I0812 10:54:05.557152 16297 net.cpp:410] loss <- fc1
I0812 10:54:05.557164 16297 net.cpp:410] loss <- label
I0812 10:54:05.557178 16297 net.cpp:368] loss -> loss
I0812 10:54:05.557191 16297 net.cpp:120] Setting up loss
…
I0812 10:54:05.557504 16297 solver.cpp:154] Creating test net (#0) specified by test_net file: /home/abba/caffe/examples/simple/train.prototxt
I0812 10:54:05.557533 16297 net.cpp:287] The NetState phase (1) differed from the phase (0) specified by a rule in layer data
I0812 10:54:05.557587 16297 net.cpp:42] Initializing net from parameters: 
name: "LogisticRegressionNet"
state {
  phase: TEST
}
layer {
  name: "data"
  type: "HDF5Data"
  top: "data"
  top: "label"
  include {
    phase: TEST
  }
  hdf5_data_param {
    source: "/home/abba/caffe/examples/simple/test_list.txt"
    batch_size: 5
  }
}
layer {
  name: "fc1"
  type: "InnerProduct"
  bottom: "data"
  top: "fc1"
  param {
    lr_mult: 1
    decay_mult: 1
  }
  param {
    lr_mult: 2
    decay_mult: 0
  }
  inner_product_param {
    num_output: 2
    weight_filler {
      type: "xavier"
    }
    bias_filler {
      type: "constant"
      value: 0
    }
  }
}
layer {
  name: "loss"
  type: "SoftmaxWithLoss"
  bottom: "fc1"
  bottom: "label"
  top: "loss"
}
layer {
  name: "accuracy"
  type: "Accuracy"
  bottom: "fc1"
  bottom: "label"
  top: "accuracy"
  include {
    phase: TEST
  }
}
I0812 10:54:05.557823 16297 net.cpp:67] Memory required for data: 0
I0812 10:54:05.557847 16297 layer_factory.hpp:74] Creating layer data
I0812 10:54:05.557862 16297 net.cpp:90] Creating Layer data
I0812 10:54:05.557873 16297 net.cpp:368] data -> data
I0812 10:54:05.557889 16297 net.cpp:368] data -> label
I0812 10:54:05.557904 16297 net.cpp:120] Setting up data
I0812 10:54:05.557914 16297 hdf5_data_layer.cpp:80] Loading list of HDF5 filenames from: /home/abba/caffe/examples/simple/test_list.txt
I0812 10:54:05.557935 16297 hdf5_data_layer.cpp:94] Number of HDF5 files: 1
I0812 10:54:05.557945 16297 hdf5_data_layer.cpp:29] Loading HDF5 file: /home/abba/caffe/examples/simple/test.h5
I0812 10:54:05.558250 16297 hdf5_data_layer.cpp:68] Successully loaded 30 rows
I0812 10:54:05.558272 16297 net.cpp:127] Top shape: 5 2 (10)
I0812 10:54:05.558284 16297 net.cpp:127] Top shape: 5 1 (5)
I0812 10:54:05.558293 16297 net.cpp:133] Memory required for data: 60
I0812 10:54:05.558303 16297 layer_factory.hpp:74] Creating layer label_data_1_split
I0812 10:54:05.558318 16297 net.cpp:90] Creating Layer label_data_1_split
I0812 10:54:05.558328 16297 net.cpp:410] label_data_1_split <- label
I0812 10:54:05.558341 16297 net.cpp:368] label_data_1_split -> label_data_1_split_0
I0812 10:54:05.558357 16297 net.cpp:368] label_data_1_split -> label_data_1_split_1
I0812 10:54:05.558370 16297 net.cpp:120] Setting up label_data_1_split
I0812 10:54:05.558384 16297 net.cpp:127] Top shape: 5 1 (5)
I0812 10:54:05.558395 16297 net.cpp:127] Top shape: 5 1 (5)
I0812 10:54:05.558403 16297 net.cpp:133] Memory required for data: 100
I0812 10:54:05.558413 16297 layer_factory.hpp:74] Creating layer fc1
I0812 10:54:05.558428 16297 net.cpp:90] Creating Layer fc1
I0812 10:54:05.558437 16297 net.cpp:410] fc1 <- data
I0812 10:54:05.558452 16297 net.cpp:368] fc1 -> fc1
I0812 10:54:05.558467 16297 net.cpp:120] Setting up fc1
I0812 10:54:05.558492 16297 net.cpp:127] Top shape: 5 2 (10)
I0812 10:54:05.558502 16297 net.cpp:133] Memory required for data: 140
I0812 10:54:05.558518 16297 layer_factory.hpp:74] Creating layer fc1_fc1_0_split
I0812 10:54:05.558531 16297 net.cpp:90] Creating Layer fc1_fc1_0_split
I0812 10:54:05.558540 16297 net.cpp:410] fc1_fc1_0_split <- fc1
I0812 10:54:05.558553 16297 net.cpp:368] fc1_fc1_0_split -> fc1_fc1_0_split_0
I0812 10:54:05.558568 16297 net.cpp:368] fc1_fc1_0_split -> fc1_fc1_0_split_1
I0812 10:54:05.558580 16297 net.cpp:120] Setting up fc1_fc1_0_split
I0812 10:54:05.558593 16297 net.cpp:127] Top shape: 5 2 (10)
I0812 10:54:05.558604 16297 net.cpp:127] Top shape: 5 2 (10)
I0812 10:54:05.558612 16297 net.cpp:133] Memory required for data: 220
I0812 10:54:05.558621 16297 layer_factory.hpp:74] Creating layer loss
I0812 10:54:05.558634 16297 net.cpp:90] Creating Layer loss
I0812 10:54:05.558643 16297 net.cpp:410] loss <- fc1_fc1_0_split_0
I0812 10:54:05.558671 16297 net.cpp:410] loss <- label_data_1_split_0
I0812 10:54:05.558686 16297 net.cpp:368] loss -> loss
I0812 10:54:05.558698 16297 net.cpp:120] Setting up loss
…
